backup_weights.npy (npy, 24128 bytes, 1 tensors)

array f8 [300, 10]
00000000: ca09 b957 d874 bfbf a511 2bad f314 9ebf
00000010: e9d3 e3f3 8c53 a3bf 9956 5e21 1d05 f1bf
00000020: c8a5 392f d321 d4bf 809b f131 79ec 0840
00000030: 7e6b a511 a879 e6bf 87c1 ae03 c46f b93f
00000040: dde6 a832 b71e f5bf 6654 9411 a90b d6bf
00000050: 0cfa 2d01 06a1 9dbf f59e f35d 1566 b1bf
00000060: 045f a800 2587 cdbf e8ac 4fe8 e871 c43f
00000070: 7a40 75a3 8523 d5bf ff49 8589 6786 d0bf
00000080: c4bf 4236 ddd0 abbf dbbd ca1c 3cee 603f
00000090: da64 3925 5c18 c9bf 1c46 71b5 3ca1 cebf
000000a0: 18d4 4827 3951 bdbf d0f2 0095 877d e03f
000000b0: e822 8615 25ce a93f b93b 404b bb0d c43f
000000c0: 67ca 0778 22d5 0040 4d3c 6dcd 1c49 ccbf
000000d0: 8361 f0f8 4e25 eebf 3bfb fcdb a587 cfbf
000000e0: 1ec1 8766 63c6 e5bf b0dd f702 58e8 e03f
000000f0: 3469 7d1e 7443 e3bf 108e 4da7 dd39 e0bf
00000100: 882d 2f61 76ac dd3f 3407 81d4 62ff dc3f
00000110: e0ce 12a2 96c5 d53f da8d 10e1 6f22 b1bf
00000120: c008 9510 264d ee3f 7edf 24c4 3cf1 da3f
00000130: 7c49 79ba 9a49 d9bf 31e3 3ca2 de3f db3f
00000140: b222 8ca6 b00b d63f b03b 828c 706a bbbf
00000150: 7763 cc66 e407 d6bf 1244 f675 de8c c83f
00000160: 2f4d 9db9 f55d 953f 61d9 7800 044f cd3f
00000170: c54c 1880 8fcd c93f 64be 8549 6255 d0bf
00000180: 9a33 fe84 1987 b13f 6fc8 2437 e3c2 d13f
00000190: 2843 3ce0 fbfe e5bf a58b 4261 8a38 bd3f
000001a0: 8894 65a9 c1ce 0a40 1186 22d1 bed2 cfbf
000001b0: 3d85 4ec4 dd16 e7bf 5ea7 51e0 71f4 e8bf
000001c0: 67c9 d1b6 063f cebf 89f8 d5f9 9231 e1bf
000001d0: 6964 a970 119e a1bf ab28 50ed 8a2d d13f
000001e0: 5205 24d9 1c0a bdbf 76a3 9f98 1075 e0bf
000001f0: 7c23 aa33 1f3c c3bf 1122 a4b4 2dda d8bf
00000200: fece 0534 dc0e c5bf 766f d28c c35e ce3f
00000210: 734d a3e4 a012 8ebf 34be 9fb5 85b6 cf3f
00000220: 6d46 fff2 8f5b dd3f 446b 31a6 d833 b8bf
00000230: 7e3b a373 8594 cb3f 66ed d991 7065 dfbf
00000240: 30a8 970d e3bf d6bf badf 8004 02a9 f73f
00000250: 0fa4 cda7 f3d0 e0bf ecbc 16bb 4017 e9bf
00000260: 74de 6f0d ed58 d93f 83fd 6a26 a96b b1bf
00000270: 9c63 41e9 9779 d9bf 7a26 af86 729e b23f
00000280: f1b7 f9c2 7b65 ac3f f4aa c261 6d51 e43f
00000290: 22fa 7185 1642 b93f 5b3e 1ccf 9982 d8bf
000002a0: f1db 9177 3fe5 9b3f fb7f 6f7b b0d3 9abf
000002b0: ef5c 1ef4 a2a0 b6bf 2f12 7f75 1ece dfbf
000002c0: 81af aebc 9e69 c4bf a6f1 bfc6 d1a3 b4bf
000002d0: d280 0244 5c04 a6bf a74d 153d 3705 d63f
000002e0: 1c99 16a5 8afa cf3f 99bb e86d 3bc7 c7bf
000002f0: da15 cd84 f893 dc3f 9ab9 770a e3ca e7bf
00000300: daa4 617d 182a d33f f07a 76ab d4a0 b4bf
00000310: a75e 2fe3 12cf c2bf 38dd be20 c3ef d0bf
00000320: 31c6 ea0f a523 b53f 0de9 7cbb c196 c33f
00000330: 94d2 9b78 bdd3 ddbf 9c8c 7934 d858 f43f
00000340: a6a4 7fb2 cf55 e03f 8116 9840 352d e7bf
00000350: 2059 8f9d 136f e7bf 402e bde5 7102 d03f
00000360: ee6c c04a 0cf5 8dbf 332e c43f daf5 b63f
00000370: 97d1 11b0 ce32 d5bf 293d 27ca a0c7 863f
00000380: f1b9 da30 72af d13f fc70 26c8 edb7 c93f
00000390: 012b dd9c 1e88 f1bf c34d 4a41 5b04 f63f
000003a0: 9bbc 142e 93b5 ccbf a220 a23b d11f e23f
000003b0: e852 c230 6e18 bc3f 6931 e9e4 1274 c5bf
000003c0: 131b e4a8 c010 e0bf 0541 c085 b214 cabf
000003d0: cda2 9708 c950 e2bf 2161 32c9 b587 0a40
000003e0: c8fa 1e18 3b33 cd3f 1ee5 982c 2a95 e8bf
000003f0: 678d 7c9e 8bc3 c53f f2ef 293e be6f 99bf
00000400: 8866 11d6 5f29 eabf b0b6 fd78 860a d0bf
00000410: e238 b01a e5eb aa3f 65db 70ba 3342 d63f
00000420: 403f 2ecd 4ea2 90bf ff2b 4d42 9091 debf
00000430: 6ec2 ecb3 051e c3bf 50b8 05ae 6782 aabf
00000440: 12ee 6d9f 0acf d73f 7c40 4d6e c2f3 bf3f
00000450: 5af6 6be1 d881 d83f 300b 267e 1d60 c03f
00000460: 4aa4 0b77 56e8 cabf c13e d37e 0e7e a4bf
00000470: 2ced d306 3995 69bf ece8 5a53 3fa8 e2bf
00000480: 4f06 ac5f 7d28 debf f46b 382f 2e50 b5bf
00000490: 11a3 0ad2 fbf0 e0bf 1b36 9c9a f2f7 c5bf
000004a0: c8c4 5c4a d541 c2bf 64ff 3a85 3085 d9bf
000004b0: 7519 2141 035a a23f db30 e10d 0f8d e03f
000004c0: 726b e632 a60a dd3f e970 0dd0 180c a7bf
000004d0: ea3e 38ba 4e0c cdbf d2d3 5c74 b7a7 bc3f
000004e0: 06d0 c522 6efa a5bf 1455 2585 32ec ca3f
000004f0: e5fd 46b4 09c2 aa3f 696d 7ac1 122e e4bf
00000500: a847 7f9e 143c cdbf ec57 bce4 dcb2 bd3f
00000510: 24a9 232c 8809 1040 f0b4 bed2 2ffb c0bf
00000520: 31b5 67d4 0ff4 debf 3e99 b6eb ec7b e8bf
00000530: 69d4 c072 dc20 e4bf 3447 5264 65eb cfbf
00000540: 25e8 d5eb 671c dabf 84cc 7692 0983 d33f
00000550: f3bb 91c4 41c2 d5bf 581b 68d8 b498 ed3f
00000560: dc15 b484 bcba d6bf e911 9cd7 4372 d0bf
00000570: 563e 3372 4cdf d93f a29f dae9 69e3 d6bf
00000580: 887f 86df 400b d13f ff26 9e83 de08 c1bf
00000590: 1158 b01f 5d33 ed3f 83ec 0456 64b6 e5bf
000005a0: 5a06 578e 646d c53f de35 00bd 3504 bbbf
000005b0: 17ac 13cf 7e36 c53f e513 98dd db46 e5bf
000005c0: c66e b1a6 cd13 e0bf 6a44 70f4 e274 c3bf
000005d0: bec3 e730 bec2 e73f 9087 791a 7342 c03f
000005e0: 1981 3928 a641 d1bf 10bd aa4e 64c7 223f
000005f0: 30b1 f9f0 1770 c4bf 5db1 f5bb 8992 e8bf
00000600: e42d 9070 7f13 d43f 6f3c 29bc 301c 96bf
00000610: fc17 732c b496 cd3f 014a aea3 cc45 e13f
00000620: b449 33c8 a94a d9bf bef7 3f91 fa96 e0bf
00000630: efdb 9f31 f05b d03f 85fb 5999 f6b5 e13f
00000640: 5930 ce01 600c cc3f 0f2d 759a 9bc5 d23f
00000650: 3009 8550 2364 e13f 97d5 e39a a14f a03f
00000660: 451c 62a3 b9cf 0140 01b8 7842 ab4d cebf
00000670: 35dc 4371 981c c33f ca42 2e53 055a 603f
00000680: fe1e 89e2 7f3d e23f d8ac 6451 d477 c43f
00000690: a354 385e 5086 e33f 85ac 3c9d d98a e23f
000006a0: cd44 bc1f 55f2 e2bf 375a 0d13 5e22 c7bf
000006b0: f515 29e9 8003 ddbf 5e79 8e23 8d73 c9bf
000006c0: d1f1 4c72 b12d d3bf f73d 7d29 3672 e13f
000006d0: d01a 255e 8c49 e13f e1a4 6ad4 da37 e4bf
000006e0: 372d 49e0 d181 c1bf 8442 d34c 62fc d7bf
000006f0: 06fc 41e8 de6a dbbf 8825 8b67 5052 c73f
00000700: c3b6 3577 80af febf 8b45 6402 a91c c2bf
00000710: cf5a 94f8 e8c8 c6bf e079 49fc f5c0 d23f
00000720: 5c27 8854 69e7 b8bf d910 77f5 145a fd3f
00000730: 3a88 792f 998a b23f f74a d7ec 150b d13f
00000740: 9e21 c798 0045 9abf 081a 3739 6565 b7bf
00000750: 7679 9285 239a b9bf a052 2930 446e d73f
00000760: ba85 d9d8 a2ee d8bf 6774 6199 b1dc c0bf
00000770: a50e a85e 1f8c d1bf 4330 467b 1f3b e03f
00000780: f6dc cd6a edab d9bf 38d5 2324 1816 ee3f
00000790: 0a47 3169 fef6 da3f 358c 2cf4 8cc4 c03f
000007a0: 5cc3 b5e2 cd8b dd3f 6c82 7791 23e7 c7bf
000007b0: 2e2c 6043 2f41 d5bf 01f7 a14c eedd debf
000007c0: ffba fa2d 9007 c03f afea 7bd3 ec96 d13f
000007d0: f3cc 09d0 8ea3 ecbf febf be72 f11f dd3f
000007e0: 51f4 6ad1 2471 0140 20dd d939 9828 e43f
000007f0: 1b0c 7a98 9065 c33f 0a4c 0db4 5f4e b23f
-0.12287666455907878 -0.029376800007200683 -0.03774681546375531 -1.0637484839875582 -0.3145645104583221 3.115465536294721 -0.7023506493236338 0.09936165895374503
-1.319998929872262 -0.34446169583072217 -0.02893456823539435 -0.06796392005673708 -0.23068678409685373 0.15972625106164817 -0.33029309237190996 -0.2582033961272429
-0.05432788169252903 0.0020667242118503743 -0.1960559064635053 -0.239295567126235 -0.11452061852544693 0.5153234396198858 0.050400885465085754 0.15666905569420722
2.1040696503999246 -0.22098121672249463 -0.9420542585458381 -0.24632714501964323 -0.6804673197312103 0.5283622796986744 -0.6019840808396908 -0.5070637004504892
0.46365127077725576 0.4530875277742894 0.3401848395107958 -0.06693171734564576 0.9469175647612005 0.42097396044436397 -0.39511745653467023 0.42577329486407495
0.34446350349802934 -0.10709289007557632 -0.3442317012682489 0.19179898033010595 0.020866240934379107 0.2289738657288565 0.20158571009287676 -0.2552114217751067
0.06846770760439683 0.27751999268651323 -0.6873759631726886 0.1141439902735742 3.3509553178906266 -0.24861893855727193 -0.7215412935367237 -0.7798394566754998
-0.23629840780956643 -0.5373015288930826 -0.0344090890909648 0.26840470481023243 -0.1134355573776891 -0.514290140240617 -0.15027227423368206 -0.38831656113373564
-0.16451599636240383 0.23726696373057238 -0.014683968522524826 0.24775763862952405 0.45871351938431 -0.09454111154029216 0.21547001024597628 -0.49056638949669773
-0.3554618485201244 1.4787616897501565 -0.5255068089874174 -0.7840884832457085 0.39605261146741744 -0.06804902255952609 -0.3980464723477384 0.07273021495998391
0.05546175723144121 0.6349398526557182 0.09866467245044722 -0.382971241241625 0.027241698906859516 -0.026198155912311432 -0.08838861904074567 -0.496955504171896
-0.15947326863294722 -0.080624686262985 -0.04300201730916488 0.3440683456912787 0.2498334222884261 -0.18576758257537732 0.4465314194570432 -0.7435164646574777
0.2994443153789469 -0.08057908235648958 -0.14694439023036418 -0.2646339244633569 0.08257514608956097 0.15303823141750464 -0.46604859140578836 1.2716905641362137
0.5104750143338108 -0.7242685567477595 -0.7323091580717893 0.2501492255730433 -0.014627548247565927 0.08968891197962918 -0.33122603601739214 0.011122947854259895
0.2763333775609729 0.2009255626006804 -1.0957323195931965 1.3760635900879243 -0.2242912268643281 0.5663839497292609 0.1097477788010327 -0.16760479142466103
-0.5020449923184479 -0.2037566330986992 -0.5723614852732567 3.316264697885473 0.22812594106468098 -0.7682085867919886 0.17003007162666536 -0.024840328735521618
-0.8175505810751966 -0.25064241233381335 0.05258098555360548 0.34779065329660447 -0.016244155190690224 -0.47763449167968014 -0.1493537071742312 -0.05177616118713557
0.37201181000975325 0.12481322472490491 0.3829252435096798 0.12793320331192026 -0.21021538555877078 -0.04002423570784464 -0.0031229127695248295 -0.5830380085019704
-0.4712212976738543 -0.08325470593301515 -0.5294169523595845 -0.17162926244093132 -0.14263406878447982 -0.3987542439535814 0.035842992496827465 0.517219092472739
0.4537749764510216 -0.04501416721061153 -0.22693809597739484 0.11193415251621211 -0.04292625593635084 0.21033317090283588 0.05226164174700524 -0.6306241778251379
-0.2283960126792952 0.1160104807316597 4.009308519054944 -0.13266561308174785 -0.48364635222135904 -0.7651276210570257 -0.6290113679193726 -0.24937121771341142
-0.40798376112764095 0.30487288764124565 -0.3399815005895441 0.9248909212773055 -0.35514748534509777 -0.25697418265943256 0.404254066012958 -0.35763023221306345
0.2663118536820481 -0.13308316637658632 0.912519990818284 -0.678514640814129 0.16740090322678008 -0.10553298820760612 0.16572556601690344 -0.6648997619637355
-0.5024173980450193 -0.1520045941875055 0.7425223307783353 0.12702788155280276 -0.2696319001024832 0.00014327144102341998 -0.15967082277655598 -0.7678879424179673
0.31369005196094535 -0.021591912731591053 0.23116161508931998 0.5397704312220527 -0.3951820807534674 -0.518430026713524 0.2556114658941046 0.5534623141428346
0.2191276558700135 0.2933110245109711 0.5434738705301125 0.03185753837343979 2.226428295547097 -0.2367452692573693 0.14931016474267414 0.001996050262683323
0.5700072693370826 0.1599069020679511 0.6101457443461594 0.5794494696650793 -0.5920816058952824 -0.1807363122013201 -0.45333884019450404 -0.19883884655150558
-0.2996638885704473 0.5451918421112499 0.540228065373265 -0.6318182133446976 -0.13677428676087697 -0.3747792959448264 -0.42839787179394795 0.18219952636563286
-1.9178471237786858 -0.14149963967114973 -0.1780062879340307 0.2930273975124731 -0.0972810584427441 1.8344926441650868 0.07242734345484872 0.2663016140842695
-0.025653848004169803 -0.09139092108589619 -0.10000822077788549 0.3661051245046938 -0.38956519295433234 -0.1317350386551965 -0.2741774010066627 0.5072171600054464
-0.4011186163911157 0.9401970582827408 0.4213253047247326 0.13099824831542298 0.46165797366761807 -0.18674130061028238 -0.33210355357795407 -0.48229558452281657
0.12523081059540428 0.27483673718203766 -0.8949655593154645 0.45507465558603133 2.1802460060849076 0.6299553995039879 0.1515370125308387 0.0715083899097381
