backup_weights.npy (npy, 24128 bytes, 1 tensors)

array f8 [300, 10]
-0.20082580645314377 0.13624003113384725 0.6453032084555502 -0.9756362532898165 -0.2900427905301882 3.8010851134234667 -0.41445012997101344 0.568960393417497
-0.7849876009980883 -0.6567478820347005 0.030912999925059026 -0.19108547052309385 -0.048680873833550437 0.012652572320332596 -0.11997800336141115 -0.6799609428404852
-0.21518304432040203 0.13787455623805764 0.09425795068932516 0.06736353518191482 0.15538504319224436 0.37460924299693615 0.06510445816474664 0.35560946497685325
1.0183209717636665 -0.29986685901210336 -0.721380735900628 0.9291993393891725 -0.5563369390028193 0.23819929647057278 -0.2369772947058652 0.31614301191399075
0.3500149905432702 0.6794473216076194 -0.27274971804739584 0.17710655367775605 0.3680744059569228 0.06674736366470585 0.8324989056793385 -0.2499597096902843
-0.15400652202079268 -0.4516852706821228 0.15823040432251614 0.2921364650927788 0.07079012897308808 0.5314687395114596 -0.1863141593778594 -0.2274770736151695
-0.17764164881111014 0.2925489447048718 0.014279922831870172 -0.07677474551408021 4.28986937549072 -0.25127387284104696 -0.9060281956142373 -0.9008771221427507
-0.21949992722239933 -0.26889116912540634 -0.27027056729789806 0.08164741681373122 0.1388648678161462 -0.4445692219856142 0.07292767478995173 -0.454421405319743
-0.11563574890881036 0.0998689116578366 0.10638596402323483 0.029477143996997832 0.4755444243070185 -0.13214079305174323 0.04466841975752608 -0.4476604309067627
0.41691808950487913 1.3141703460045 -0.01430202620532844 -0.7964720750436135 0.0785700532643939 -0.5431846798659641 -1.0279199973155482 -0.5371932302813581
-0.0659430733597336 0.3910423665723176 -0.05136178430562263 0.03334421062846942 0.09284999813260443 -0.1606611553332438 0.04624529081244546 -0.6125769843709457
-0.0011899535799514533 0.05527275224063786 0.10038895196617031 0.3094363330664006 -0.1505665558649507 0.1261429170963716 0.005824108626620113 -0.8504682225242187
-0.18757431641344416 -0.5930623757541544 0.1058856459662675 -1.1238474300719032 0.11403052029927566 0.08549637113003833 -0.6693644779554685 1.7991614449839244
-0.021983742643973913 -0.6979473896537495 -0.4953166979777902 0.14699826164052063 0.06841060551032706 -0.11949025372973333 -0.10782225219383595 0.8462184036608783
0.255415590269285 0.12501021330381365 -0.08263249375346228 1.2212286835348154 0.20760784228813217 -0.1267068750246965 -0.14770006792657053 0.2075277279190719
-0.07502482881172297 0.0829583663145891 0.14883702389985373 3.1800776967697524 0.005910863226509489 -0.8432207682093895 -0.20705906756511774 0.25426307494855993
-0.3510743998060608 -0.22500764386982602 -0.04068330381289655 0.2033629569334803 -0.3974671779624036 -0.2980370987416244 -0.3495803322543203 0.04741871047799324
0.09952854125205107 0.3172144191519498 0.1929991072489432 -0.3865857325807954 0.18166109486850432 -0.13294208110662087 0.38261964325165077 -0.05600860858445723
-0.206918467856915 -0.2879783027088995 -0.16125061448962355 0.2529285897530786 0.07785047992471018 0.4968303597568482 -0.2808060735617738 0.5012413824070792
-0.056074867951933366 0.16671056436345816 -0.11528659748099279 0.05444062850190353 0.277313893680309 0.04378798223794041 0.04403850870933115 -0.99347747876154
0.23762356225865197 0.10634978321665198 4.350480512235002 -0.15960232685011486 0.17948401527461746 -0.2393239314615071 -0.7247227700424029 -0.5296755437397889
-0.5165796733571475 0.00525274611294467 -0.07550433162813099 0.6165086642099852 -0.6019401307261091 0.10593504377010556 0.2825090477499708 -0.5401789749114787
0.023656469356968825 0.5069558407503743 1.2752613958740953 -0.6527700047634699 -0.18909985119544453 0.06338455643137038 -0.26240383101931564 -0.7249832663755015
-0.2038958613990416 -0.1807965286123313 0.7324378148493116 -0.1199413935610666 -0.2862752111684204 -0.20340715653996613 0.2650503831921506 -0.7507010583393467
-0.23470905138878184 0.2114971128007458 0.09576335642492483 0.09504211372858364 -0.3207128491940868 -0.8193893346645009 -0.4138858955410331 0.38803511348672753
-0.11877724996581111 0.12814640330049198 -0.02555990293439439 -0.38622838880926624 1.6310628548216013 -0.6572769896258646 0.13049468729499267 0.11830340812108943
0.05885926877567536 0.40902085669127114 1.2329934058846428 -0.4672650644492419 0.02568545924302311 -0.14109739615829453 -0.24871642643093736 0.22466800435189052
0.1728007277081841 -0.040653838328539416 0.4016658819787534 0.23878665798422677 0.015734867786888068 0.0625754639562388 -0.1051683044415249 0.19096998779260319
-1.9542603221794002 0.004211005167354257 0.07675421168055648 -0.18497906591010269 -0.014284740674364544 1.7288908461461745 -0.12141560602690636 -0.030417817924612192
0.019007974805976442 -0.30824470638669244 -0.10763537953303445 -0.04916847354442656 -0.11495195998440264 -0.36951356083025166 -0.7076911870532571 -0.17472884746701597
0.5330158643769929 0.09399163642039272 0.09806815980172018 0.14414578529009475 0.7833157049902765 -0.4439608476795655 0.17579818904914868 -0.441082241731539
-0.40743118940832856 -0.49708247141353423 -0.5751769300895822 0.419531215614096 2.694257221278126 0.15849255236196239 0.36205983127684466 -0.9022670773831082
00000000: ad5c 74f7 a8b4 c9bf 5a1d 1037 5070 c13f
00000010: 3341 0aea 52a6 e43f d97e 1585 6938 efbf
00000020: 9a22 f1a2 0f90 d2bf dcba db4f 9f68 0e40
00000030: d719 83d6 5986 dabf 7551 4e6d ec34 e23f
00000040: 54ac 4151 9e1e e9bf 3fcd 6122 1404 e5bf
00000050: 002a cc4e a8a7 9f3f 4b98 511b 7d75 c8bf
00000060: fc91 1c12 b3ec a8bf 11dc 9b82 97e9 893f
00000070: 3638 ade0 e0b6 bebf a9d4 8173 3dc2 e5bf
00000080: 9c42 0135 1e8b cbbf a719 ff9a dfa5 c13f
00000090: f63f 99ff 4921 b83f ee9c 8c94 bc3e b13f
000000a0: a12c 6637 a8e3 c33f c5df dc0b 99f9 d73f
000000b0: f031 a48e afaa b03f 2750 8e33 4ec2 d63f
000000c0: eae4 68ee 0a4b f03f 571e 27c4 0431 d3bf
000000d0: 250b 950d 8d15 e7bf 8985 c440 00bc ed3f
000000e0: 075d d21f 83cd e1bf 8fba 2286 507d ce3f
000000f0: d6ff 53a1 4555 cebf cce3 41e6 af3b d43f
00000100: dd8e 5f46 a566 d63f c91a 354f 08be e53f
00000110: 2f6f c03b bb74 d1bf 7703 fa73 6dab c63f
00000120: 5918 05f4 878e d73f c4bc 08f0 5a16 b13f
00000130: 4d27 bbbe d4a3 ea3f 8efd 3705 aefe cfbf
00000140: e099 b957 7cb6 c3bf 3789 6a56 69e8 dcbf
00000150: f526 e6d5 e440 c43f d2b8 e224 5db2 d23f
00000160: 4dac d148 4d1f b23f b989 e1ba ca01 e13f
00000170: 36a2 a772 24d9 c7bf 022b e2ff f71d cdbf
00000180: e18e 0628 f6bc c6bf b226 7f35 1fb9 d23f
00000190: f914 6bcc ca3e 8d3f 4546 247d 82a7 b3bf
000001a0: db60 7f84 d328 1140 8242 8c02 df14 d0bf
000001b0: 6458 add7 2efe ecbf b22a 2a42 fcd3 ecbf
000001c0: c581 72d8 9218 ccbf b4ea 644e 8335 d1bf
000001d0: e969 e7eb 1c4c d1bf 3892 0459 d8e6 b43f
000001e0: 0ab7 eaf0 52c6 c13f ce20 4f77 d273 dcbf
000001f0: f537 325a 63ab b23f 8fd7 9c84 3d15 ddbf
00000200: a9d2 cfef 4d9a bdbf 1e20 754d 0291 b93f
00000210: b6b4 3b4c 1c3c bb3f 794e c9a5 412f 9e3f
00000220: 1667 8ce1 516f de3f 85f7 4f50 fde9 c0bf
00000230: eb8e 0b74 c7de a63f d14c 9def 77a6 dcbf
00000240: 4331 e235 c9ae da3f b665 177c d706 f53f
00000250: 1e20 8c76 614a 8dbf 9faa 4f01 b37c e9bf
00000260: 462e 37c1 2a1d b43f 2ccd 76d6 c461 e1bf
00000270: b8fe 353d 5c72 f0bf eb1c 76db af30 e1bf
00000280: 1850 7a2f a5e1 b0bf bad3 f18f d606 d93f
00000290: bcb5 b67f 174c aabf 4707 520c 7e12 a13f
000002a0: 49c7 6979 04c5 b73f f169 f273 8b90 c4bf
000002b0: 3355 4477 76ad a73f faf9 440c 3b9a e3bf
000002c0: 36e6 6aed 067f 53bf cd86 77ce b54c ac3f
000002d0: f40c 9321 17b3 b93f fab7 ad0c cecd d33f
000002e0: 58d9 a7d0 c345 c3bf b485 c67b 7325 c03f
000002f0: a263 4641 05db 773f afeb 4022 0937 ebbf
00000300: b55b 4869 6f02 c8bf de44 8bf2 5dfa e2bf
00000310: e97b 8a5a 521b bb3f b9a3 5d71 47fb f1bf
00000320: 9a66 6eab 1a31 bd3f 2421 ee15 17e3 b53f
00000330: fd87 bd0d 6f6b e5bf 85e1 e682 5dc9 fc3f
00000340: 7356 ccfe e782 96bf 8986 9cc3 9555 e6bf
00000350: 628c bece 44b3 dfbf 3b4e 28cb d6d0 c23f
00000360: 2fcd 5d81 5b83 b13f 11bf f5cb e996 bebf
00000370: 741e f436 3d9a bbbf c7e5 1f9e 3814 eb3f
00000380: 5d16 c6a1 ba58 d03f 8b26 e7ac 5500 c03f
00000390: 390f 4232 6727 b5bf b481 8b16 278a f33f
000003a0: c6a4 82ce e492 ca3f 3968 344e ee37 c0bf
000003b0: e048 aef8 d5e7 c2bf 0f7a 36c2 4490 ca3f
000003c0: ad64 22c2 d334 b3bf 0931 406e c23c b53f
000003d0: 57bb 0a73 170d c33f b5eb 5293 cc70 0940
000003e0: 1ada fb43 fd35 783f ec8d d81e aafb eabf
000003f0: d526 c459 e980 cabf 6c01 dfa1 d845 d03f
00000400: a04f 68c2 0078 d6bf 6ead e2eb 0ccd ccbf
00000410: 333f bd26 71d4 a4bf c1a2 9f20 cc07 ca3f
00000420: 6e3e a52c 1a70 d9bf 8dc2 0532 0a13 d3bf
00000430: 0cdb 962f 865f d6bf f964 71e5 4347 a83f
00000440: a436 b2d5 b37a b93f d6f1 04b5 3d4d d43f
00000450: d84c e5da 31b4 c83f d238 a215 d2bd d8bf
00000460: 4338 b5b6 ab40 c73f 20bc 4e01 3f04 c1bf
00000470: 7aac a419 d77c d83f b154 540c 29ad acbf
00000480: e322 31ea 4d7c cabf 6fe8 058c 3c6e d2bf
00000490: e1ae d831 dca3 c4bf b79f 4d65 fb2f d03f
000004a0: 3129 4151 02ee b33f 6c32 b490 11cc df3f
000004b0: c2d2 9d09 baf8 d1bf 34e3 1a5e 2b0a e03f
000004c0: 1c4f f657 d8b5 acbf 5a5c eb92 c556 c53f
000004d0: 3815 d925 6c83 bdbf 8b8d fa5d a4df ab3f
000004e0: 9455 05c6 82bf d13f caed 56df 606b a63f
000004f0: 04a6 5725 378c a63f b7fc 1248 91ca efbf
00000500: 9778 54ea 726a ce3f 6e2a da48 bd39 bb3f
00000510: 18bd 075d e466 1140 4be7 175b d96d c4bf
00000520: fd2e e10b 55f9 c63f 2c7f 63a5 2aa2 cebf
00000530: eff4 7fce ed30 e7bf 244f 3b20 1af3 e0bf
00000540: 2c1d 5b18 d287 e0bf 7001 4f4c e783 753f
00000550: d195 0c7b 4054 b3bf e770 cf60 70ba e33f
00000560: 99cb f3f2 1743 e3bf c930 7e1c 8f1e bb3f
00000570: 2941 3ad4 a014 d23f 5069 e76a 2549 e1bf
00000580: 9774 e8c8 6639 983f d43f 9174 fb38 e03f
00000590: ba16 527e 7867 f43f 909a c8eb 7de3 e4bf
000005a0: 220d 4886 6c34 c8bf 3db7 f164 f839 b03f
000005b0: 32ad 2470 39cb d0bf 735c 671b 1033 e7bf
000005c0: 30d3 3f74 4219 cabf b465 cf34 5724 c7bf
000005d0: 3835 a46d 2170 e73f d90c c8aa 7ab4 bebf
000005e0: 51ed 6743 5552 d2bf dd45 8ee6 3e09 cabf
000005f0: 4290 e6e1 95f6 d03f 8e7b d439 be05 e8bf
00000600: c41e e539 f20a cebf 74bc 565f 5612 cb3f
00000610: f70f 0084 f283 b83f 99fc 3412 ae54 b83f
00000620: 6e84 ac2f 8f86 d4bf 4a68 62fb 6f38 eabf
00000630: 53f6 6744 1b7d dabf 5902 883a 91d5 d83f
00000640: 73aa 1c94 2f68 bebf 2848 a3f1 1967 c03f
00000650: 28c5 c40c 602c 9abf 9a3e ae46 f7b7 d8bf
00000660: e5dd 325d d518 fa3f ca67 dbc0 6908 e5bf
00000670: 33eb 1dc7 0cb4 c03f e1aa e2d4 2149 be3f
00000680: ed7e ea54 cd22 ae3f 07bd b7d0 652d da3f
00000690: c454 274b 57ba f33f 62dc 97ba abe7 ddbf
000006a0: bce1 b9fd 494d 9a3f 147b 06bf 7a0f c2bf
000006b0: d7da bf9a f0d5 cfbf f910 93d1 ebc1 cc3f
000006c0: c4a6 1d91 551e c63f d0e8 2774 94d0 a4bf
000006d0: ae22 c1d0 e4b4 d93f ceb6 61ab 8f90 ce3f
000006e0: 48ce 341a cd1c 903f cf5c 3913 f204 b03f
000006f0: 67f1 265c 4fec babf 9f1a 0b5e b471 c83f
00000700: 5c18 ba78 a644 ffbf dd17 a217 8f3f 713f
00000710: 658d fffc 29a6 b33f 87a6 43df 64ad c7bf
00000720: 2ad4 3970 5141 8dbf 4dd3 a872 89a9 fb3f
00000730: a70d 1cd9 1715 bfbf c4bc ce34 d925 9fbf
00000740: d293 9e98 d376 933f 5024 4601 48ba d3bf
00000750: 7ea7 fc02 fe8d bbbf f12f bc33 9c2c a9bf
00000760: fe7d bedc 7d6d bdbf aa71 cc34 1ca6 d7bf
00000770: 01f5 01fd 67a5 e6bf 0bf1 c4ce 835d c6bf
00000780: 88f2 3749 770e e13f 7dea 85fc d50f b83f
00000790: 1496 20b3 fe1a b93f 52ae d67c 5e73 c23f
000007a0: a50b ec18 ec10 e93f 333e 5fc2 da69 dcbf
000007b0: 50c0 5418 8e80 c63f 3855 c502 b13a dcbf
000007c0: 0a44 7844 5a13 dabf f8b3 88ff 32d0 dfbf
000007d0: f8bf 0473 d967 e2bf b8ac ad74 99d9 da3f
000007e0: 0a36 e3ba d68d 0540 e5ef 86e4 7b49 c43f
000007f0: 79e0 a1ff fc2b d73f 41c6 b334 5fdf ecbf
